…
02-22 13:34:03.607299: E external/local_xla/xla/stream_executor/cuda/cuda_fft.cc:607] Unable to register cuFFT factory: Attempting to register factory for plugin cuFFT when one has already been registered\n","2024-02-22 13:34:03.608626: E external/local_xla/xla/stream_executor/cuda/cuda_blas.cc:1515] Unable to register cuBLAS factory: Attempting to register factory for plugin cuBLAS when one has already been registered\n","\n","                   from  n    params  module                                       arguments                     \n","  0                  -1  1      2320  ultralytics.nn.modules.conv.Conv             [3, 80, 3, 2]                 \n","  1                  -1  1    115520  ultralytics.nn.modules.conv.Conv             [80, 160, 3, 2]               \n","  2                  -1  3    436800  ultralytics.nn.modules.block.C2f             [160, 160, 3, True]           \n","  3                  -1  1    461440  ultralytics.nn.modules.conv.Conv             [160, 320, 3, 2]              \n","  4                  -1  6   3281920  ultralytics.nn.modules.block.C2f             [320, 320, 6, True]           \n","  5                  -1  1   1844480  ultralytics.nn.modules.conv.Conv             [320, 640, 3, 2]              \n","  6                  -1  6  13117440  ultralytics.nn.modules.block.C2f             [640, 640, 6, True]           \n","  7                  -1  1   3687680  ultralytics.nn.modules.conv.Conv             [640, 640, 3, 2]              \n","  8                  -1  3   6969600  ultralytics.nn.modules.block.C2f             [640, 640, 3, True]           \n","  9                  -1  1   1025920  ultralytics.nn.modules.block.SPPF            [640, 640, 5]                 \n"," 10                  -1  1         0  torch.nn.modules.upsampling.Upsample         [None, 2, 'nearest']          \n"," 11             [-1, 6]  1         0  ultralytics.nn.modules.conv.Concat           [1]                           \n"," 12                  -1  3   7379200  ultralytics.nn.modules.block.C2f             [1280, 640, 3]                \n"," 13                  -1  1         0  torch.nn.modules.upsampling.Upsample         [None, 2, 'nearest']          \n"," 14             [-1, 4]  1         0  ultralytics.nn.modules.conv.Concat           [1]                           \n"," 15                  -1  3   1948800  ultralytics.nn.modules.block.C2f             [960, 320, 3]                 \n"," 16                  -1  1    922240  ultralytics.nn.modules.conv.Conv             [320, 320, 3, 2]              \n"," 17            [-1, 12]  1         0  ultralytics.nn.modules.conv.Concat           [1]                           \n"," 18                  -1  3   7174400  ultralytics.nn.modules.block.C2f             [960, 640, 3]                 \n"," 19                  -1  1   3687680  ultralytics.nn.modules.conv.Conv             [640, 640, 3, 2]              \n"," 20             [-1, 9]  1         0  ultralytics.nn.modules.conv.Concat           [1]                           \n"," 21                  -1  3   7379200  ultralytics.nn.modules.block.C2f             [1280, 640, 3]                \n"," 22        [15, 18, 21]  1   8720857  ultralytics.nn.modules.head.Detect           [3, [320, 640, 640]]          \n","Model summary: 365 layers, 68155497 parameters, 68155481 gradients, 258.1 GFLOPs\n","\n","Transferred 595/595 items from pretrained weights\n","\u001b[34m\u001b[1mTensorBoard: \u001b[0mStart with 'tensorboard --logdir runs/detect/train14', view at http://localhost:6006/\n","Freezing layer 'model.22.dfl.conv.weight'\n","\u001b[34m\u001b[1mAMP: \u001b[0mrunning Auto
…
ight_decay=0.0005, warmup_epochs=3.0, warmup_momentum=0.8, warmup_bias_lr=0.1, box=7.5, cls=0.5, dfl=1.5, pose=12.0, kobj=1.0, label_smoothing=0.0, nbs=64, hsv_h=0.015, hsv_s=0.7, hsv_v=0.4, degrees=0.0, translate=0.1, scale=0.5, shear=0.0, perspective=0.0, flipud=0.0, fliplr=0.5, mosaic=1.0, mixup=0.0, copy_paste=0.0, cfg=None, tracker=botsort.yaml, save_dir=runs/detect/train5\n","Overriding model.yaml nc=80 with nc=1\n","\n","                   from  n    params  module                                       arguments                     \n","  0                  -1  1      2320  ultralytics.nn.modules.conv.Conv             [3, 80, 3, 2]                 \n","  1                  -1  1    115520  ultralytics.nn.modules.conv.Conv             [80, 160, 3, 2]               \n","  2                  -1  3    436800  ultralytics.nn.modules.block.C2f             [160, 160, 3, True]           \n","  3                  -1  1    461440  ultralytics.nn.modules.conv.Conv             [160, 320, 3, 2]              \n","  4                  -1  6   3281920  ultralytics.nn.modules.block.C2f             [320, 320, 6, True]           \n","  5                  -1  1   1844480  ultralytics.nn.modules.conv.Conv             [320, 640, 3, 2]              \n","  6                  -1  6  13117440  ultralytics.nn.modules.block.C2f             [640, 640, 6, True]           \n","  7                  -1  1   3687680  ultralytics.nn.modules.conv.Conv             [640, 640, 3, 2]              \n","  8                  -1  3   6969600  ultralytics.nn.modules.block.C2f             [640, 640, 3, True]           \n","  9                  -1  1   1025920  ultralytics.nn.modules.block.SPPF            [640, 640, 5]                 \n"," 10                  -1  1         0  torch.nn.modules.upsampling.Upsample         [None, 2, 'nearest']          \n"," 11             [-1, 6]  1         0  ultralytics.nn.modules.conv.Concat           [1]                           \n"," 12                  -1  3   7379200  ultralytics.nn.modules.block.C2f             [1280, 640, 3]                \n"," 13                  -1  1         0  torch.nn.modules.upsampling.Upsample         [None, 2, 'nearest']          \n"," 14             [-1, 4]  1         0  ultralytics.nn.modules.conv.Concat           [1]                           \n"," 15                  -1  3   1948800  ultralytics.nn.modules.block.C2f             [960, 320, 3]                 \n"," 16                  -1  1    922240  ultralytics.nn.modules.conv.Conv             [320, 320, 3, 2]              \n"," 17            [-1, 12]  1         0  ultralytics.nn.modules.conv.Concat           [1]                           \n"," 18                  -1  3   7174400  ultralytics.nn.modules.block.C2f             [960, 640, 3]                 \n"," 19                  -1  1   3687680  ultralytics.nn.modules.conv.Conv             [640, 640, 3, 2]              \n"," 20             [-1, 9]  1         0  ultralytics.nn.modules.conv.Concat           [1]                           \n"," 21                  -1  3   7379200  ultralytics.nn.modules.block.C2f             [1280, 640, 3]                \n"," 22        [15, 18, 21]  1   8718931  ultralytics.nn.modules.head.Detect           [1, [320, 640, 640]]          \n","Model summary: 365 layers, 68153571 parameters, 68153555 gradients\n","\n","Transferred 589/595 items from pretrained weights\n","\u001b[34m\u001b[1mTensorBoard: \u001b[0mStart with 'tensorboard --logdir runs/detect/train5', view at http://localhost:6006/\n","\u001b[34m\u001b[1mAMP: \u001b[0mrunning Automatic Mixed Precision (AMP) checks with YOLOv8n...\n","\u001b
…
